snake-ai-pytorch/model/model.pth (torch, 17103 bytes, 4 tensors)

linear1.weight f4 [256, 11]
000000 bd 08 a0 3e 99 a0 89 3e 82 f9 be 3e a4 a3 03 be
       0.31256667 0.2688034 0.37299734 -0.12855393
000010 5a d5 11 be 39 51 23 be dc 94 30 be 4b 3a c0 3e
       -0.14241543 -0.15948953 -0.17244285 0.37544474
000020 f2 b1 f0 3e a2 36 04 3e 68 32 0f 3e 84 75 68 3e
       0.47010761 0.12911466 0.13984072 0.22701079
000030 8a 87 f9 3e 7d e0 ce 3e 59 90 64 be 79 9e 6e be
       0.4873622 0.40405646 -0.2232069 -0.2330264
000040 29 0b 6f be 73 ca f0 bd 2e 58 00 3f 0c 23 fc 3e
       -0.23344101 -0.11757364 0.5013455 0.4924549
000050 c4 bd 99 3e fd 6e 90 3e 30 03 85 3e 4a c7 4b 3e
       0.30027592 0.28209677 0.25978994 0.19900241
000060 cf 0a 33 3e d5 da a2 be f4 6d c7 bd 2b a2 13 be
       0.17484592 -0.3180758 -0.09737769 -0.14417331
000070 3c 3d 22 be 6b 42 4d 3e 2c ce e2 bd 1d 4f 18 3e
       -0.15843672 0.20044868 -0.110744804 0.1487393
000080 90 65 89 bd 1e 8b 2a bf 76 a9 7f 3e 1c 74 9e 3e
       -0.06708825 -0.66618526 0.24966988 0.3094796
000090 37 e8 11 bf fc 90 e8 3d c5 70 f0 3d c9 ae f6 3d
       -0.56994957 0.113557786 0.11740259 0.120450564
0000a0 86 61 0e bf df 2e ad 3d a9 46 db 3c 05 3a cf bb
       -0.5561756 0.084562056 0.026767092 -0.006324055
0000b0 e5 ae a0 3e f0 c9 8c be 63 93 fb 3e 5d cf 80 bd
       0.31383434 -0.27497816 0.49135885 -0.062895514
0000c0 76 8a 54 bd 84 db ff bc 27 f6 8e be 51 bb 7c 3c
       -0.05188986 -0.031232603 -0.27922174 0.015425519
0000d0 65 bd 53 3b 2c b5 0d 3d 39 13 55 3e 40 12 1a bd
       0.0032308933 0.034596607 0.20808114 -0.03761506
0000e0 35 31 06 be f9 6a 58 bd e2 0b 05 be 27 3c 32 3b
       -0.13104708 -0.052836392 -0.12992814 0.0027196498
0000f0 92 6f eb be 38 22 8a 3e 2b 6b b9 be d5 cd 1b bf
       -0.4598356 0.26979232 -0.36214575 -0.6086095
000100 e0 17 c3 be b6 e7 9a 3e 10 8d db bd c9 4b d9 3e
       -0.38104153 0.30254906 -0.10720265 0.42440632
000110 ef 9b b2 3e 9e 1d 05 be 61 62 13 be c4 37 25 bb
       0.34884593 -0.1299958 -0.14392997 -0.002521024
000120 c7 39 20 be a2 d0 b6 3e 9f e5 07 3f ed de 45 3e
       -0.1564704 0.3570605 0.5308475 0.1932332
000130 eb 9b 67 3e ed f2 cc bd 96 f8 06 bf fd d1 03 bd
       0.22618072 -0.10007272 -0.5272306 -0.032182682
000140 6c d9 8c 3e 9c b1 b7 3d 34 9b f3 3c 65 a4 d5 be
       0.2750963 0.08969423 0.029737093 -0.41726986
000150 1e 08 30 be c5 d4 94 bd 67 f3 27 3e 4e b7 88 be
       -0.17190596 -0.07267145 0.16401444 -0.2670235
000160 b3 7d 88 3e 94 2c 32 bd 23 63 b8 3e 4c b0 e4 3c
       0.266584 -0.043499544 0.36013135 0.027916096
000170 b2 93 e8 bd 17 af 66 be 79 37 e5 3d 64 73 6c 3e
       -0.11356296 -0.22527729 0.11192221 0.23090893
000180 46 65 a3 3c 74 59 d1 3d 22 d5 3b be 55 23 19 be
       0.019945752 0.1022214 -0.18343022 -0.14954884
000190 c2 15 07 3b d4 c5 34 be 8b 81 25 be 11 f8 c0 3d
       0.0020612334 -0.1765359 -0.16162698 0.09422315
0001a0 fb 13 02 3d 6c 0b df 3d c8 0a fe bc 4a 12 b1 3d
       0.031757336 0.108908504 -0.031011 0.086460665
0001b0 e1 4a 94 be 24 6b 46 be 4f 3f fc bd 69 bd ca bd
       -0.28963378 -0.19376808 -0.12316763 -0.09899408
0001c0 d2 12 f4 bd 36 2c d6 3d b3 1d f7 bd 6b bb e6 3e
       -0.11917652 0.10457651 -0.120662116 0.45064864
0001d0 a5 ff 1c be e5 c9 0a bf e9 cc b8 be c8 2d c7 3e
       -0.15331896 -0.54214317 -0.36093834 0.38902116
0001e0 09 7e ab be 0b be 76 3e 1f cf 1c 3f cf ff 95 be
       -0.33494595 0.24095933 0.6125354 -0.2929673
0001f0 02 89 34 3e e9 69 fd bd 40 4c 74 3e 19 60 54 bd
       0.1763039 -0.123737164 0.23857212 -0.05184946
000200 7e ac 19 3e 0b f4 04 be 1a 6c d7 3c 36 84 5a 3e
       0.15007207 -0.1298372 0.026296664 0.21339497
000210 6a 0a 50 3e aa 5e c0 3e 4e 2c 4a 3e 29 d7 ae be
       0.20316473 0.37572223 0.19743463 -0.3414853
000220 5b 7c 6e 3e 78 30 b6 3d 3a dd 80 be b7 f4 f5 3d
       0.23289625 0.088959634 -0.25168782 0.12009566
000230 1a 82 83 be fd 11 6c be 0d cf ca bd eb e8 d4 3d
       -0.25685197 -0.23053737 -0.09902773 0.10395988
000240 f3 05 fa 3e 4a 2c 12 bf f6 3f c6 3d 71 df a6 3e
       0.48832664 -0.5709883 0.09680168 0.32592347
000250 32 d8 78 3e 55 1e 92 be 85 cc 9d 3e b4 70 87 bd
       0.24301222 -0.28538767 0.308201 -0.06613293
000260 55 42 7c 3d 34 85 f9 be 6d 1a ce 3d 7a 36 d7 3d
       0.061586697 -0.48734438 0.10063634 0.105084375
000270 8d e0 8e 3e c0 68 42 be 03 ab c8 bd d3 02 00 3d
       0.27905694 -0.18985271 -0.09798243 0.031252693
000280 32 5c b8 be da 53 5c 3e a2 bc c6 3e d3 c7 29 bc
       -0.3600784 0.21516362 0.3881579 -0.010362583
000290 38 50 48 3e 8a 7d b5 be f2 6a 2f be 72 17 15 3f
       0.19561851 -0.3544734 -0.1713064 0.582389
0002a0 be 72 a0 be b1 6c 4c be 29 f2 1b 3e e1 e2 cd 3e
       -0.3133754 -0.19963337 0.15229096 0.40212157
0002b0 d9 b4 51 3d cf 35 3a be 6b f1 81 bd c0 c1 99 3e
       0.05119786 -0.18184589 -0.06344875 0.30030632
0002c0 d2 29 7a bc 78 48 57 3d 6c 3f 98 3c 74 77 12 be
       -0.01526876 0.052559346 0.01858493 -0.1430338
0002d0 9d 3a 38 bb 15 e8 22 be aa e0 b0 bd 72 37 a9 3d
       -0.0028111108 -0.15908845 -0.08636601 0.082625285
0002e0 23 1f d6 3b 7c e6 a6 bc 02 81 95 3c fa bc 3b 3e
       0.0065344735 -0.020373575 0.018249992 0.18333808
0002f0 09 b6 f1 be 1c 26 dd 3e 5a c3 b3 3d 08 11 55 3d
       -0.47209194 0.43193138 0.08777495 0.052018195
000300 67 fb 23 3e ba 2f 8f 3c 4b d1 be 3c 2e ee c5 bd
       0.16013871 0.017478812 0.023293158 -0.0966457
000310 30 e3 45 bd bc 1c 5b 3d 32 b7 1b 3d b5 d0 67 3e
       -0.048312366 0.0534942 0.038016506 0.22638209
000320 23 6e 98 3d 7e 1a 1c 3e 5b bd dd bd ba 5c 58 be
       0.07442882 0.15244481 -0.10827132 -0.21129122
000330 b2 0e 70 bd 6e 9d 4c 3e d9 4a a8 be ac d0 b3 be
       -0.058607765 0.1998193 -0.32869604 -0.35120142
000340 67 70 41 3d 68 b6 9e 3e ca 1a 04 be 9d 25 89 3e
       0.047226336 0.3099854 -0.12900844 0.2678651
000350 95 5a 92 3d d8 a8 d0 3d d9 63 a4 be 51 cc 3d be
       0.071461834 0.101884544 -0.32107428 -0.18534972
000360 23 eb 67 be 1d 26 97 be ba 0b 29 3e 66 07 1e 3d
       -0.22648291 -0.29521266 0.1650838 0.038581274
000370 1b 5d 39 be eb 4b 29 3e 39 0d 36 3e 46 e4 47 be
       -0.18101923 0.16532867 0.17778482 -0.19520673
000380 cb 7c 84 bd 4b 4c 8a 3e fa 13 83 be d0 28 a8 be
       -0.06469115 0.27011332 -0.25601178 -0.32843637
000390 32 5f b2 be 7f 11 84 3e 34 78 1b be f6 f7 03 be
       -0.34838253 0.25794598 -0.15182573 -0.12887558
0003a0 6b 7b 47 be 0d 36 e8 3e 20 f2 6e be 89 5f 9b 3e
       -0.19480674 0.45353737 -0.23334551 0.30346325
0003b0 73 e3 f3 bd f1 ac 9d 3e 97 65 0c bf be 2c fa 3c
       -0.11908617 0.30796006 -0.54842514 0.030538913
0003c0 2d 50 24 be bc f0 cb bc af 8f c0 3e 42 02 ff 3e
       -0.1604621 -0.024895065 0.37609622 0.4980641
0003d0 b1 3b dd bd da 6b 03 bb 80 e3 d0 bd 2e 90 66 3d
       -0.10802401 -0.0020053298 -0.10199642 0.056289844
0003e0 e1 fe b7 3e 95 47 fc 3c 06 57 95 3e f4 fa 62 be
       0.35936645 0.030795852 0.29167956 -0.22166044
0003f0 9a 1b 42 be 22 39 af 3e 2e c5 a6 3c 64 66 9e 3e
       -0.18955842 0.34223276 0.020357694 0.30937493

linear1.bias f4 [256]
000000 f0 d9 ec bd 2e ec 10 be 75 17 90 bd 77 ea ec 3e
       -0.11565006 -0.14152595 -0.07035724 0.46272632
000010 9f fd 87 bd 23 5d 16 3e 8f cf d8 bd 9f 2d 3e 3f
       -0.06640171 0.14683966 -0.10586464 0.7428836
000020 7b d7 00 be d9 72 54 be db 8d 2c be 11 69 5a be
       -0.125822 -0.20746936 -0.16850989 -0.21329142
000030 45 4d b1 bd 8a e4 6b 3e ef 71 30 bd 47 6a 7a be
       -0.08657316 0.230364 -0.043077406 -0.24454604
000040 d7 ff 1d be 34 13 77 3d e3 9d 8f 3d 72 70 ba 3d
       -0.15429626 0.060321048 0.070125364 0.091034785
000050 90 31 48 be e0 89 b1 3e 60 ee 56 be a4 b0 7a be
       -0.19550157 0.34675503 -0.2098937 -0.24481446
000060 43 41 c2 bd 0b af 9b bd 7c 4f 30 be 0f 80 6a bc
       -0.09485104 -0.07601746 -0.17217821 -0.014312758
000070 44 cd 5d 3e cf cc 7a bd f1 18 36 bd 25 4e 83 be
       0.21660334 -0.061230477 -0.04445738 -0.25645557
000080 fb 7a 3e 3e 73 d1 78 bc 08 7d 0d 3d e5 d6 af 3d
       0.18601601 -0.015186655 0.034543067 0.0858591
000090 90 93 85 be 52 69 85 3d 74 06 9f bd 50 6b 88 be
       -0.26089144 0.06514229 -0.07764903 -0.26644373
0000a0 a8 1b b3 3c 8e f0 fe bd 87 3c 96 bd eb 23 62 be
       0.021863773 -0.12448226 -0.073357634 -0.22084014
0000b0 a5 fd 0f be f9 1b f4 bd 00 04 a3 3e 86 27 8d be
       -0.14061601 -0.11919398 0.3183899 -0.27569216
0000c0 e8 55 cd 3c 7e 13 0f be 39 d4 3e bc 36 e6 a5 bc
       0.025065377 -0.1397228 -0.0116472775 -0.020251375
0000d0 e8 97 40 bd ef fc 34 be ef 1e 1e be 10 a6 bb 3e
       -0.04701987 -0.17674612 -0.15441488 0.36650133
0000e0 82 bc 1e bc aa 47 d5 3d 8e 5d 41 be 05 17 60 3e
       -0.009688498 0.104140595 -0.18883345 0.21883781
0000f0 46 ab d5 bd 59 4b 65 bd dd 39 93 3d f7 ac 64 be
       -0.104330584 -0.05598006 0.07188771 -0.22331606
000100 25 e5 83 be 12 83 75 be d3 3d b2 bd 78 3e a5 bb
       -0.2576076 -0.2397578 -0.08703198 -0.0050428472
000110 38 d8 47 bd 20 31 8e bd 42 ae cf bc 01 40 cd 3d
       -0.048790187 -0.069429636 -0.025351647 0.100219734
000120 0a a3 e2 bd 28 b9 e2 3d 8b 11 73 be c3 61 28 3e
       -0.110662535 0.11070472 -0.23737161 0.16443543
000130 22 6c 69 bd a7 24 46 be 91 91 08 3e 08 20 a2 be
       -0.05698789 -0.1934992 0.13336779 -0.31665063
000140 26 91 f0 bc f6 c9 65 bd 16 5a db 3e d6 ce 2c be
       -0.029366087 -0.056100808 0.42842168 -0.16875777
000150 1d af 28 bd 10 88 a3 bc d6 66 1a be f0 79 4c be
       -0.041182626 -0.01996234 -0.15078291 -0.1996839
000160 71 80 44 3e 0b bb 82 be 81 1c d7 bd 0d fb 9b 3b
       0.19189622 -0.25533327 -0.105034836 0.004760152
000170 a9 f8 96 bd 02 3a 01 3e 13 e8 19 be 53 2d 29 be
       -0.07371647 0.12619784 -0.15029936 -0.16521196
000180 86 9d a5 bd de 28 48 bd 68 c1 92 3d 9f ea 9a be
       -0.08086686 -0.0488671 0.071657956 -0.30257127
000190 33 98 aa be 69 7d df bd 01 9f d4 3d 39 68 aa 3d
       -0.33319244 -0.10912592 0.1038189 0.0832066
0001a0 d0 9e 89 3d ee 79 18 be 32 e5 5b 3f cd cc a3 bd
       0.06719744 -0.14890262 0.858966 -0.07998047
0001b0 bc 78 84 3c 4f 3b 26 3d 77 18 28 be 3e 9c 2a 3c
       0.016170852 0.040583905 -0.16415583 0.010413228
0001c0 9a 48 5a be 7e f6 27 3f c7 c2 fc 3e 7a 1f 1c 3f
       -0.21316758 0.6561049 0.49367353 0.6098553
0001d0 53 85 f6 bd 36 6f 43 bd 0a 92 a4 bd d5 e9 97 3c
       -0.12037148 -0.04771348 -0.08035667 0.018544117
0001e0 17 4c 75 be 43 0e 0b bc 6c ad cc 3e ae 35 80 be
       -0.23954807 -0.008487287 0.3997606 -0.25040954
0001f0 77 f3 4a be d5 57 38 be 4d af 00 be e9 a9 aa be
       -0.19819437 -0.18002255 -0.12566872 -0.33332756
000200 a3 18 43 3e 61 e9 1e be e6 1e 3b 3e 5a 61 96 3e
       0.19052367 -0.15518714 0.18273506 0.29371148
000210 0e dd a8 bd 98 db 71 3e 82 18 68 bc 04 dd 85 bb
       -0.08245288 0.23618925 -0.014165999 -0.004085185
000220 54 24 8f be 74 43 93 3d 21 ba 3c be e3 ef 10 3d
       -0.27957404 0.071906 -0.18430378 0.035385024
000230 af c5 9e bc 86 4a 90 bd 35 de c5 3d 4b ce 0a 3e
       -0.019381372 -0.07045464 0.09661523 0.13555257
000240 2e 81 ad 3d 08 73 1b be 6b 5a 5b be 70 7a 0d be
       0.08471905 -0.151806 -0.2142121 -0.13816237
000250 77 ba ab be 7d 4b d3 be 75 c9 b0 bc 71 de 5b 3e
       -0.335407 -0.4126853 -0.021580437 0.21471573
000260 96 8c 4c be 50 d7 f6 bd ac ef ce bd db 88 e3 bd
       -0.19975504 -0.12052786 -0.101043075 -0.111100875
000270 76 4d af bd fa 1e a0 be 96 ac 67 be c6 d3 b4 3e
       -0.085596964 -0.31273633 -0.2262443 0.3531782
000280 81 14 8e bd f7 8a b5 be 27 c2 81 be b0 98 bf bd
       -0.069375046 -0.35457584 -0.2534344 -0.09355295
000290 c7 ea 20 bd 9a 00 d3 bd a8 92 b0 3e 7a 32 18 be
       -0.0392864 -0.10302849 0.3448689 -0.14863005
0002a0 5b c3 16 be 70 3b 53 3d be ed 80 bd 39 33 3c be
       -0.1472296 0.051570356 -0.06295346 -0.18378915
0002b0 04 82 83 be 0c 6f 45 be db 57 7a 3b c9 03 f2 bd
       -0.25685132 -0.19280642 0.0038199339 -0.11817128
0002c0 af 65 9a bd ca 79 98 bc e3 91 33 be 6c 2e 82 b8
       -0.07538926 -0.018612761 -0.1753612 -6.20753e-05
0002d0 8f 31 57 bd 6c ae 94 be cb fa 44 3e e2 1e ee 3d
       -0.052537497 -0.29039323 0.19236295 0.11626984
0002e0 83 8f ed be 92 b2 a2 3e 86 5c 57 bd 36 16 fa bd
       -0.46398553 0.31776863 -0.05257847 -0.12211268
0002f0 92 83 b4 3d 90 dd ba bd 3b f3 ba 3e 0f 18 c3 3d
       0.088141575 -0.09124291 0.36513695 0.09526073
000300 82 8d 22 be 62 e7 85 3d 9f e8 34 3d 82 6f 4e be
       -0.15874293 0.065382734 0.044167157 -0.20159724
000310 ce bb 0b 3d d3 9f 40 be bb cd 28 be 5c 7c 02 bf
       0.03411465 -0.18810968 -0.1648473 -0.5097101
000320 9f e1 c4 bc f0 c2 16 be 70 33 73 3e 31 37 25 bc
       -0.024033366 -0.147228 0.2375009 -0.010083959
000330 1b 09 b7 3c b2 4c c8 3d a1 96 25 be 93 22 1c be
       0.022343209 0.097802535 -0.16170742 -0.15247564
000340 47 39 89 bc 72 90 28 3c ba 12 f6 3d 9e cf a0 bd
       -0.016750945 0.010288345 0.120152906 -0.078521
000350 94 b9 08 3e 8c 6d 14 3f a5 c9 fc 3c e5 0c c3 bd
       0.13352042 0.57979655 0.03085787 -0.09523944
000360 68 b0 68 be 04 4c 95 3d 30 38 0a 3e f8 92 6c be
       -0.22723544 0.072898895 0.13497996 -0.23102939
000370 36 b0 73 3e c8 24 d1 3d 2f 1b 1a be e0 e9 81 3d
       0.23797688 0.102120936 -0.15049432 0.06343436
000380 43 6c 27 be 71 01 e0 bd 16 ec fb 3c 30 96 98 bb
       -0.16349892 -0.10937775 0.030752223 -0.0046565756
000390 80 ad 53 3e 81 0c 6f 3e e7 0c 40 bd 40 8d 4e be
       0.20671654 0.23344614 -0.046887305 -0.2017107
0003a0 2d 2c aa 3d d5 49 12 bd 74 d5 18 bd a5 85 41 3d
       0.08309207 -0.035714943 -0.03731294 0.047246594
0003b0 2f 00 ad bb 7c 02 4d be 33 53 93 3d d3 df bb 3e
       -0.005279563 -0.20020479 0.07193603 0.36694202
0003c0 29 b8 2e be 23 d3 f6 bd 3f 01 82 3e b9 69 ae be
       -0.17062439 -0.1205199 0.25391576 -0.34065035
0003d0 68 30 2a bc ea af 64 3e 3c 50 df 3d 00 04 ab bc
       -0.0103875175 0.22332731 0.10903975 -0.02087593
0003e0 ed b1 2c 3c d1 79 00 3f c7 f9 e2 3d 4d c8 0d 3f
       0.010540468 0.5018588 0.110827975 0.5538376
0003f0 f4 e0 39 be 36 96 26 be 5f b4 8d be ce b0 51 be
       -0.18152219 -0.16268238 -0.27676675 -0.20477602

linear2.weight f4 [3, 256]
000000 bf 85 01 be c8 91 8d be 1c b3 53 bd 8c 02 06 3f
       -0.12648676 -0.27650285 -0.051684484 0.52347636
000010 9e 38 1c be ed 4c ec 3e 15 20 d7 bd 9e fd 97 3e
       -0.15255973 0.4615244 -0.10504166 0.29685682
000020 e5 81 12 bd ef bf 63 bd 90 2d a1 3e 45 13 28 bd
       -0.03576841 -0.055602964 0.31480074 -0.041034
000030 22 9f 0d be 4f 46 91 3e be 5a ba bd a8 a8 49 3e
       -0.13830236 0.28373954 -0.09099339 0.19693244
000040 24 26 8c 3b 15 a7 33 3d 63 cc 86 3d 6b 5b 3d bd
       0.0042770077 0.043860514 0.065819524 -0.04622976
000050 5f ce 5d 3e 1a 00 63 3e a4 3c 96 bd fb 1b 5a be
       0.21660756 0.22168007 -0.07335785 -0.21299736
000060 f2 b5 08 be 2c 2b 88 be de 20 e6 bc 8f 13 38 3c
       -0.13350657 -0.26595438 -0.028091844 0.011235132
000070 2a 35 ca 3d ea 95 20 3d f3 5f af bd 1c d3 bd be
       0.098734215 0.03920547 -0.08563223 -0.37075126
000080 5d ba 8b 3d 13 4f 3d 3e 70 d1 5c be 6b a6 6a 3e
       0.06822655 0.18487196 -0.21564269 0.22915046
000090 94 6a 6b be c0 95 e5 3e 41 11 aa 3d 1a 79 bc bc
       -0.22989875 0.44840813 0.08304072 -0.023006964
0000a0 e6 27 9b 3e 00 bb 15 3f 88 86 49 bd 55 88 81 bd
       0.30303878 0.58488464 -0.049200565 -0.063248314
0000b0 ce 6d 8f bd 6c a7 9f 3e b9 23 d3 3e 35 1d 3c bd
       -0.070033655 0.3118242 0.41238192 -0.04592629
0000c0 72 5a 05 3f c9 90 c7 be 28 d5 16 3d fd 84 af bd
       0.52091134 -0.3897765 0.036824375 -0.085702874
0000d0 96 3b 1f bd 08 e5 b5 bc 13 3e ce bd 2b 32 5f 3e
       -0.038875185 -0.022203937 -0.100704335 0.21796481
0000e0 09 ba 87 3e 81 8a bd 3e 4d 69 af bc 51 ce 8b 3e
       0.2650912 0.37019733 -0.021412516 0.27305844
0000f0 ac 26 15 bd e0 d8 cf bd 73 6c 88 3e f7 b2 86 be
       -0.036413833 -0.101487875 0.2664524 -0.26308414
000100 af d7 10 be e0 46 2d be 59 21 f2 be 72 19 73 3c
       -0.14144777 -0.16921568 -0.47291067 0.01483761
000110 89 23 24 3d a2 d6 9e be 9a a6 0c 3e 2c a6 a2 bd
       0.04007295 -0.31023127 0.13735428 -0.07941851
000120 46 f1 6b bc a3 75 7e be d1 c1 16 bf 73 a5 99 be
       -0.014400786 -0.24849562 -0.5888949 -0.3000904
000130 2f d7 7c 3e 8c 24 d4 be 05 1e eb 3d 63 da 21 bc
       0.24691461 -0.41434133 0.11480335 -0.009878728
000140 97 24 8f 3e 1a 3c 45 bd 19 73 da 3e 2c 8c e6 be
       0.27957603 -0.04815302 0.42665938 -0.45028818
000150 26 c3 2a 3b a8 7d 3b bd 81 0f 3c bd 5b 59 12 bd
       0.002605626 -0.045774132 -0.045913223 -0.035729747
000160 69 52 76 3e be 2c 5f bc e1 24 2b 3e f7 a4 5c bd
       0.24054874 -0.013621507 0.16713287 -0.05386826
000170 e3 4f 2f be c9 a2 9e bd 28 5a fe 3e 63 c7 b0 3d
       -0.17120318 -0.077458926 0.4967816 0.0863178
000180 13 08 ad 3c 5e b3 a5 bc 1a ca b8 be dc b8 73 be
       0.021122014 -0.02022713 -0.3609169 -0.23800987
000190 c3 0e 44 be 9d 66 8c be 12 4f c2 3e 70 a1 7c 3d
       -0.19146256 -0.27422038 0.3795095 0.061677396
0001a0 08 e3 76 be 91 7d bc 3e c8 b9 e7 3e 62 47 35 be
       -0.24110043 0.3681455 0.45258927 -0.17703012
0001b0 c2 86 14 bb 69 6d 33 be 42 ce db 3d 5f 02 f7 3c
       -0.002266333 -0.17522205 0.107327 0.030152498
0001c0 65 3a 32 bd 64 14 63 3e f7 01 98 3e 44 c2 b7 3e
       -0.04351272 0.22175747 0.29689 0.358904
0001d0 7a ee f6 be 5f f3 88 be b9 30 45 be 73 b0 53 be
       -0.48228818 -0.26748177 -0.19256867 -0.20672779
0001e0 b8 47 43 be 46 5d 02 bc ed 9f a6 3e 62 f1 45 bd
       -0.19070327 -0.007956808 0.3254389 -0.048325904
0001f0 9d 23 d1 3c f9 07 82 bb 87 7c 90 be 3f 8c c4 be
       0.025529677 -0.0039682356 -0.28220007 -0.3838825
000200 37 ee 97 3e bd 66 16 ba 4b 5a 98 be 73 08 d3 3e
       0.2967393 -0.0005737355 -0.29756388 0.41217384
000210 98 91 91 3c f5 4d 76 3e 71 64 80 3c 58 cb 01 bf
       0.01776962 0.24053176 0.015672894 -0.507009
000220 7d 87 f4 ba 12 86 15 bf 7a fa 8c 3e ad cc f9 3a
       -0.0018656101 -0.584077 0.27534848 0.001905819
000230 70 0b b8 3e 27 97 aa be ed 7a fa bc 33 c8 a3 be
       0.35946226 -0.33318445 -0.030576194 -0.31988677
000240 1d 99 80 3d 09 41 0e bc 4d 28 1a 3e ed 54 ec bd
       0.06279204 -0.008682498 0.15054436 -0.11539636
000250 ad f8 a3 3c 16 ed c8 bd a3 9b c4 3d d6 84 ab 3d
       0.020016039 -0.098108456 0.09599998 0.08374946
000260 e6 83 1e be 5e 30 a7 3d 02 99 4d bd f1 d6 2f 3e
       -0.15480003 0.08163522 -0.050194748 0.17171837
000270 90 6c 67 be 94 fe 25 3d db c1 12 bd 8a 6e 95 3e
       -0.22600007 0.040525988 -0.035829406 0.29185897
000280 77 58 78 3e 3c 49 f1 3b 19 7b a0 b9 6a 9d 8b bd
       0.24252497 0.0073634665 -0.00030609293 -0.06817134
000290 8e ec c3 be c7 1c 7a 3c df 01 af 3e 20 30 c2 be
       -0.38266414 0.01526565 0.34181115 -0.3792734
0002a0 5c e0 ac bc a6 f0 3e be 78 eb bd be 22 2c 8c bd
       -0.021103077 -0.18646488 -0.3709371 -0.06844355
0002b0 10 52 cd bd 22 73 39 3d a5 3d 14 bf cd 80 9c bd
       -0.10025418 0.045275815 -0.5790656 -0.07641754
0002c0 45 97 90 3e d2 89 ca 3e c1 a0 c1 bd 27 f2 f1 be
       0.2824041 0.39558274 -0.094544895 -0.4725506
0002d0 54 8f 2c 3d 1f b5 9b be 53 22 9e be 97 85 09 3e
       0.042128876 -0.30411622 -0.30885562 0.13429867
0002e0 45 93 21 be 75 0e 21 3e e0 ec 4a be 9a e9 02 bf
       -0.15778835 0.15728171 -0.19816923 -0.511377
0002f0 5b 91 59 3d 61 30 2d 3e 2f df 87 3e a0 be 3d 3d
       0.053117137 0.16912986 0.26537463 0.046324372
000300 88 5b a1 be e7 9c f4 3c 02 59 b7 be 5e d4 61 bb
       -0.31515145 0.029859973 -0.35810095 -0.0034458856
000310 26 44 0c 3d c3 e8 95 be 21 fd 63 3c 1c 43 83 be
       0.03424468 -0.29279146 0.013915331 -0.25637138
000320 57 8a 25 be 52 a5 1f bf 38 e0 3f 3e 55 17 a4 3e
       -0.16166054 -0.62361634 0.18737876 0.3204905
000330 18 1a 58 3c 86 95 d7 3e f4 17 72 be 13 61 09 3e
       0.013189815 0.42106265 -0.2364195 0.13415937
000340 8d 5d e7 be c5 a6 90 bd 88 ff 50 be 6c ea 64 bd
       -0.4518856 -0.07063059 -0.20409977 -0.055887625
000350 b9 80 58 3e e2 b8 d0 3e c9 8d 71 bc 88 db c9 be
       0.21142854 0.40766054 -0.014743277 -0.39425302
000360 1d 05 61 be 71 ec 21 be 51 de 8c 3e 62 c6 aa be
       -0.21974607 -0.15812851 0.27513364 -0.3335448
000370 1a 59 eb 3d 85 52 0f 3e d8 35 c7 3e f4 a2 1a 3b
       0.11491604 0.13996322 0.38908267 0.0023595663
000380 87 d2 9a bd 0a 55 51 3e 56 b7 c0 3e a2 54 d0 3e
       -0.07559686 0.20442596 0.37639874 0.4068957
000390 71 df ac 3d 9f f8 73 3e d6 33 c1 be 4f ee 97 bd
       0.084410556 0.2382531 -0.3773486 -0.07418501
0003a0 29 d7 1d bf 19 d0 a7 bd 24 d9 87 bc 2a 15 ac 3e
       -0.61656433 -0.08193988 -0.016583033 0.33609897
0003b0 58 21 39 be 38 8e a9 be 17 5c 08 bf 77 ca cc 3e
       -0.18079126 -0.33116317 -0.5326552 0.39998218
0003c0 37 07 40 be a0 60 9b be ac 26 35 3e 1c 6b cd bd
       -0.18752752 -0.30347157 0.17690533 -0.10030195
0003d0 72 65 5c 3e 3b 6d 0e 3e 94 e3 6e 3d 4d 80 59 bc
       0.21523073 0.13908856 0.058322504 -0.013275218
0003e0 c4 fa 06 be 42 c7 ef 3e c1 7b 06 3e 70 aa 55 3e
       -0.13181597 0.4683171 0.13133146 0.20865798
0003f0 f1 66 f0 be 22 5c a0 bd c1 73 62 3c 71 2a c7 be
       -0.46953538 -0.07830073 0.013821543 -0.38899568

linear2.bias f4 [3]
000000 92 a3 63 3e fe 65 fe 3c 99 25 a5 3d
       0.22230366 0.031054493 0.08063812
